models/conv2_layer_28x28_1.pt (torch_old, 101254 bytes, 8 tensors)

weight f4 [10, 1, 5, 5]
00000000: 7d0d b2be cca0 84bd c112 e7bc d86c 233e
00000010: fe89 8b3e 6399 dabe f27c 253d 4ea0 923e
00000020: 036a 6b3e f96d ab3e b416 10be c3b1 a13e
00000030: faf4 633e f6c1 c73e de9b 9e3e 8d38 a13d
00000040: a684 833e 82f1 9d3e c477 b43e 0dda 933e
00000050: f224 b53d bdec 2f3e 3ccf ca3d 9064 11bc
00000060: 4c87 23bd 9471 91ba 4daf 0fbc fde8 183e
00000070: 812c bfbd 9011 983d dc79 a73e 78f8 e93e
00000080: 0d30 b43e a51f 413e d586 443e c75a b13e
00000090: 6945 903e 1e43 de3e 92e3 bb3e f401 803e
000000a0: 8582 cc3e 373c d93e 9777 b73e 69b6 103e
000000b0: 0596 643d 0c8e 81bc 3cbb 8f3e 7ac5 193e
000000c0: ce9e c5bc 2325 7ebd 64ae 54bc 6409 383d
000000d0: f09e ed3d f083 5e3e e337 e2bd 75ea 833d
000000e0: e828 463c 6cf3 223e be46 2f3e e29a 803e
000000f0: 58c3 7a3e 537e 863e 0355 023d 8224 c93d
00000100: 53d1 703e e3cc a2bc 2e7f 4e3e 1e55 123e
00000110: 7fc2 38bd 6826 1b3e e956 e3bb 1ec4 803d
00000120: 0e6d f13d 60dc b23d bc11 283e 7e80 2cbe
00000130: 63f8 61be 2c18 393d 6691 343e 8ce9 843d
00000140: fd94 e3be 9454 b8be 7fe1 0a3d ca67 a73d
00000150: d650 d53e a13c d2be e6de e4be 1994 ecbd
00000160: 087a a43d acc3 7d3e a9e0 08bf 7c79 9abe
00000170: 779c ba3e 3382 fc3e 2333 ef3e 69d7 c4be
00000180: adf1 8abc 5baa c63e 4d34 f03e c586 903e
00000190: 2de4 5dbe 4712 55be 6e15 be3d e8a0 663e
000001a0: 5c4b db3d 4f4d 2b3e 50c4 903d d3e1 213d
000001b0: 1f1c 003e 8fdf d73d 001b 4e3c b343 af3e
000001c0: 9c10 b83e 3392 4b3e fa6c 973e 9cf0 943e
000001d0: acb3 ac3e 0f3d 8b3e f4fd c43c a4a9 923e
000001e0: 5ae9 0b3c cbf3 9b3d 9971 213e a9c2 9b3d
000001f0: db39 463d d920 97be 005d b7bc ffb0 81be
00000200: 6610 07be a3b1 55bd b98b 9a3c 9878 dfbd
00000210: 42c1 f83c 70be 87bd cdec 3dbe 1b39 a73e
00000220: e969 903d 46c6 b23d cdf7 c8bd f74f 45bd
00000230: 9e6a 053f 4f88 b53e 6958 873e 6bda 0ebe
00000240: 8eaa bdbe ec41 eb3e 68f3 e03e 7d94 293e
00000250: 1010 3f3c 6765 a6be a20d c63e 97e9 e93e
00000260: 3b80 c23e fee7 c03c 41b8 0ebe 16cb 4c3e
00000270: c0ea e33e 6ddf d13e ac29 5a3e c48e c8be
00000280: 54ba 813e dee4 a93e 107b 803e 0ead 84be
00000290: a66b e8be 2553 24bd 9b2b fc3c 4070 d2bb
000002a0: 4073 87be f893 a9be d774 29be 172f 003c
000002b0: 404d a7be b3cd 13bf a458 d7be b73c 063f
000002c0: e28c 673b 8f68 3e3e 4d4a 28be 4551 413d
000002d0: 6f00 aa3e 426d bd3c 1127 29be 24d7 69bd
000002e0: 1b25 8fbe b5ca 0c3f 0f94 833d 8aec 9abe
000002f0: 3f48 94be c629 0ebe 94a1 913e ecc9 24bd
00000300: c0e1 a9be 43fe 19be 87f6 323e 1c12 a03e
00000310: ea1a 87be e3c5 bebe b5eb 45be 96f3 a53e
00000320: 3d88 1c3f 64e9 f53e e667 57bd ca15 cebe
00000330: b1fb e6be 6959 f73e 3436 743e 1861 a5be
00000340: b5e4 c7be 1f67 c5be da24 c23e 7349 45be
00000350: 35de dcbe 7080 1fbc 3eda ea3d 3e9a 2cbc
00000360: baf7 40be 8d58 dbbc 45a3 df3d 4004 883b
00000370: d82c 333c cef1 9d3b 120e 283d b7ad 573e
00000380: 4918 013e c498 3e3e 9ce8 b03d a84d c33e
00000390: 81ac f33e a217 d93e 3bd2 653e a174 743e
000003a0: b41d f23d 6500 db3e e69d a83d b77a 71be
000003b0: 20d9 cbbc b870 f13d d727 513e eb0c b8bd
000003c0: bc96 aabe 96aa 59bd 523c 85be 043a 31be
000003d0: 86bf 1dbe ebff b8bd 0461 dbbe ec48 adbe
000003e0: 6d94 efbe db8b c3be
-0.34775916 -0.06475982 -0.028207185 0.1595949 0.27253717 -0.4269515 0.04040236 0.28637928
0.22989659 0.3348234 -0.1407116 0.31580934 0.2226142 0.39015168 0.30978292 0.07872114
0.2568714 0.30848318 0.35247624 0.28877297 0.088449374 0.17180152 0.09902808 -0.008874074
-0.03992395 -0.0011096471 -0.008769822 0.14932628 -0.0933466 0.07425225 0.3271016 0.4569738
0.3519291 0.18859728 0.1919206 0.3463957 0.28177956 0.4341058 0.3669706 0.2500149
0.39943328 0.42428753 0.35833427 0.14132084 0.055807132 -0.015814804 0.28072536 0.15016738
-0.024123576 -0.062047135 -0.012981031 0.04493083 0.116025805 0.21730018 -0.11045816 0.064412035
0.012094714 0.1591317 0.1711683 0.25118166 0.2448858 0.26268253 0.031819355 0.098214164
0.23517351 -0.019873088 0.20165703 0.14290282 -0.04510736 0.1515137 -0.0069378507 0.062874064
0.11788379 0.087334394 0.16413015 -0.16845891 -0.22067408 0.045189068 0.1763359 0.06489858
-0.44449607 -0.36002028 0.033906456 0.08174093 0.41663235 -0.4106188 -0.44701308 -0.11551685
0.08031088 0.24781674 -0.53467804 -0.3017081 0.36447498 0.49318084 0.46718702 -0.38445595
-0.016960943 0.38801846 0.46914902 0.2822782 -0.21669073 -0.20807754 0.09281431 0.22522318
0.10707733 0.1672871 0.07068694 0.039522003 0.12510727 0.10540687 0.0125796795 0.34231338
0.35950172 0.1987999 0.2957533 0.2908982 0.3373083 0.27195022 0.024046876 0.2864505
0.008539522 0.07614859 0.1576599 0.07605488 0.04839502 -0.29517248 -0.022383213 -0.2533035
-0.1318985 -0.05217136 0.018865453 -0.10911673 0.03036559 -0.0662812 -0.18547364 0.32660756
0.07051451 0.08729224 -0.09812889 -0.048171964 0.5211581 0.35455558 0.2643464 -0.13950507
-0.37044185 0.45948732 0.43935704 0.1656055 0.011661544 -0.3249924 0.38682276 0.45686027
0.37988457 0.023548122 -0.13937475 0.19999346 0.44515038 0.40990773 0.21304959 -0.39171422
0.2533747 0.33182424 0.2509389 -0.2591328 -0.4539463 -0.040118355 0.030782511 -0.0064220726
-0.26455116 -0.33120704 -0.16548477 0.007823727 -0.32676125 -0.5773575 -0.42059815 0.52436393
0.0035331775 0.18594573 -0.16434593 0.047196645 0.33203456 0.023123387 -0.16518809 -0.05708994
-0.27957997 0.54996806 0.06424724 -0.3025859 -0.2896137 -0.13883123 0.28443587 -0.04023163
-0.33180046 -0.150384 0.17476855 0.31263816 -0.2638772 -0.3726035 -0.19328196 0.32412404
0.61145383 0.48029625 -0.05258932 -0.40251 -0.451139 0.48310402 0.23848802 -0.3230064
-0.39041677 -0.38555238 0.3791874 -0.192663 -0.4313828 -0.009735212 0.11467408 -0.010534821
-0.188445 -0.026775623 0.10919813 0.0041508973 0.010935985 0.004820085 0.041029043 0.2106236
0.1260692 0.18612963 0.08638117 0.38145185 0.47592548 0.42400843 0.22443478 0.23872615
0.11822072 0.42773739 0.08233242 -0.23581968 -0.024883807 0.117890775 0.20425354 -0.08986839
-0.33318126 -0.0531412 -0.26022583 -0.17307287 -0.15405092 -0.090331875 -0.42847455 -0.33844697
-0.46792927 -0.3819264

bias f4 [10]
00000000: cae4 3f3e e29e 43be 230b d9be c62f 493d
00000010: 5270 3e3e 05e1 d6bd 921a 1c3e 46a9 223d
00000020: 317c 383e 629f f33d
0.1873962 -0.19103578 -0.4239131 0.049117826 0.18597534 -0.10492138 0.15244511 0.039712213
0.18016125 0.11895634

weight f4 [20, 10, 5, 5]
00000000: 6c65 943d 37cd a5bc ad06 a23d 1750 043e
00000010: 00e0 013e e824 e9bd a186 f13c 265c a03d
00000020: b94e f43c 7e6d d5bc 6681 43bd 2264 fdbd
00000030: 6fee 7ebd 24d5 7fbd d118 b3bd 5414 7a3b
00000040: 6584 c93c 619f b03c f07a 14bd 7c4a b93c
00000050: a895 223e be36 813d e9b3 6c3d 3761 d8bc
00000060: b00e 2fbd 6aa6 5d3c 1875 debc ac9f 903d
00000070: 28ce c33d 772a ef3d 98c7 51bc fe41 66bd
00000080: 637d d2bb 8756 2d3d 41a4 db3d 5878 39bd
00000090: 9a17 cbbd 2ea1 23be 7cbe d7bd 4a7d b2bd
000000a0: 31e8 dd3c 998b 0f3c e4b1 a2bd 21a9 90ba
000000b0: 72b5 9cbd f0e1 0f3e 23ec 163e 958f 2c3d
000000c0: 30e9 d83d 8588 6f3c 0b23 b5bd c168 efbc
000000d0: 4ba4 50bd 72da 4fbc c4b4 ca3d 2b0c cfbd
000000e0: e288 36be 34fa d2bd 0e51 923c 9e88 613d
000000f0: 895a e1bd 886d 93bd 599a 48be 8238 c0bd
00000100: 1928 a6bd 03af a73d 304f 42bd 7936 e8bd
00000110: 8272 1cbe 3ae2 c5bd cdec 273e 56f2 1f3e
00000120: 6376 c13d b634 a0bb c065 f6bd b99a 33bd
00000130: 8da1 dc3d e1f8 ed3d a7bd b73d f230 dfbb
00000140: d328 25be 8de1 7fbe 9a9e 2bbe d257 3bbe
00000150: ff6c 54be b83a 72bd ac4d 91be e5fc ddbd
00000160: 56de 1f3d 4ad5 dc3d a944 f83d 103b 5abd
00000170: 6c15 16be a04a 073d 4161 afbc 5a60 1c3e
00000180: 528e a43c d00a 66be b036 32be 331e 06be
00000190: 49a6 f9bc 65a8 643d 760f 933d 1ac9 dc3d
000001a0: 3380 f63d df1a 07bd 8589 00bd 7b53 49bd
000001b0: 0119 a03d 101e 4d3c 0ca6 3a3c 0cfe 77bd
000001c0: bbd7 13be 7bb1 15bd 74ff c8bb c276 403c
000001d0: bc57 8a3d 28de 783c e988 83bc 2e0f 26bd
000001e0: bccd 143e 4122 213e 17b5 043e 1d04 fb3c
000001f0: 06e7 83bd 3001 33bd 3bfb 87be b67b 7bbe
00000200: 3e2d 383c 879a de3d cee6 043d d7e2 d3bd
00000210: 521f 87be ab0a 3cbe ce32 ebbd e018 a33d
00000220: 0362 9d3d dbc4 87bd 2524 97be cd4f 5dbe
00000230: 70a7 843d 7835 863e bdd5 623e f8db 503e
00000240: a705 f23b 8526 01b9 aff9 9e3d b8c4 773e
00000250: 2309 813e 4b8c d93c 6bc1 6b3e bd22 95b9
00000260: 2002 8ebd b493 12be 3bc8 09be f7bb 013e
00000270: 7483 1dbd 777e 863c 471c 723e af22 023e
00000280: 1570 14bd 5a4c 86bc a7fc c1bb e1c8 733d
00000290: 9e8c d03d 5e36 d4bd 50d0 2bbe a714 5abe
000002a0: ec22 55be 480b 0bbe faa9 c7bd f45f d53d
000002b0: b11e d53c 63c1 12bd a5cb dabd 8d3d 8f3e
000002c0: 24b4 cb3e 7b3c 25be c7c6 8bbe 916c 1cbe
000002d0: fdd7 a63c ad7b 063b ce38 12be ec62 86be
000002e0: 0bc6 913d 4ec1 05be ede0 303c 3b56 26be
000002f0: 2f97 47be bf40 76bb 7520 51be d8e8 27be
00000300: af1e 0fbd 082c 5dbe 4f50 c2bd fbda 65be
00000310: 7de4 2dbe a283 59bd 1124 57bd e624 063b
00000320: d0b1 153d 1b63 8a3e 9f3e 993e a917 793e
00000330: f679 37bd d32e 623e 4a4f 2cbd 288f 94be
00000340: d50d 28be d6a3 01be b4ea 573e 1ef5 a6bc
00000350: df56 a9be a89a 7dbe 992e 11bc 8985 6e3e
00000360: f30a da3e 09cd 0f3e e944 70be 562e 10be
00000370: e1d4 01bd ddc0 1f3d 83ae 093e 4136 143e
00000380: 95da 8bbd b0c2 ba3e 40c7 733e f295 3b3d
00000390: ccce 84bd e366 67bc 83f7 263c df97 a63e
000003a0: d503 1a3f 7e2f f33e 10e6 873e b619 6abc
000003b0: 039e 663e 4ded 093f ac00 093f 72b1 bf3e
000003c0: c6fa f4bd 5b3f ddbe a58d c7be c2bb 1b3d
000003d0: 3570 3b3e da74 023e 20ee 8e3d 975a 81bd
000003e0: 39c2 b9bd 08c1 debd 3ff6 fcbc c20b d5bd
000003f0: 2588 e5bc cdc4 233d 04f3 943d e517 18be
0.07245907 -0.020239456 0.079114296 0.12921177 0.12683105 -0.113839924 0.029483141 0.07830076
0.029822694 -0.026053187 -0.047730826 -0.123726144 -0.062239107 -0.062459126 -0.08744968 0.003815909
0.024599263 0.021560373 -0.036250055 0.022618525 0.15877402 0.06309269 0.057788763 -0.026413543
-0.042738616 0.013528446 -0.027155444 0.07061705 0.095608056 0.116780214 -0.0128039345 -0.05621528
-0.0064236387 0.042318847 0.10724688 -0.045280784 -0.09916611 -0.15979454 -0.10534379 -0.08715303
0.027088257 0.00876131 -0.07944086 -0.0011036732 -0.076517954 0.14051032 0.14738517 0.042129118
0.10591352 0.014619951 -0.088445745 -0.029224755 -0.050937932 -0.012686359 0.098977596 -0.10109743
-0.17825654 -0.10301629 0.017860916 0.05506193 -0.11003596 -0.07198626 -0.19590129 -0.09385778
-0.08113117 0.08187678 -0.0474388 -0.11338515 -0.15278056 -0.0966229 0.16398926 0.15619788
0.094464086 -0.004889096 -0.12031126 -0.043848727 0.10773001 0.116197355 0.0897172 -0.0068112547
-0.16128854 -0.24988385 -0.1675972 -0.1829522 -0.20744704 -0.05913803 -0.2837957 -0.108392514
0.039030395 0.10782869 0.12122471 -0.053278983 -0.1465661 0.033030152 -0.021408679 0.1527113
0.020087395 -0.22465062 -0.17403674 -0.13097458 -0.030474799 0.055824656 0.07180683 0.107805446
0.12036171 -0.03298461 -0.03138115 -0.04915188 0.07817269 0.0125193745 0.011392128 -0.060545012
-0.14437763 -0.03654621 -0.006133968 0.011747064 0.06755015 0.015189685 -0.016056495 -0.04054182
0.14531606 0.15735723 0.12959705 0.03064161 -0.064405486 -0.043702304 -0.2655886 -0.2455891
0.011241255 0.108693175 0.032446675 -0.10346001 -0.26391083 -0.18363445 -0.114842996 0.07963729
0.0768471 -0.06629344 -0.29519764 -0.21612473 0.06477249 0.26212668 0.22151847 0.20396411
0.0073859277 -0.00012316748 0.07762467 0.24196136 0.25202283 0.026556155 0.23023002 -0.00028445377
-0.06933999 -0.14314157 -0.13455288 0.12669359 -0.03845544 0.016417725 0.236436 0.12708543
-0.036239702 -0.01639383 -0.005920011 0.059517745 0.101830706 -0.10361932 -0.16778684 -0.2129694
-0.20814103 -0.13578522 -0.09749217 0.10418692 0.026015611 -0.03582896 -0.10683373 0.27976647
0.39785874 -0.16136353 -0.27300093 -0.1527579 0.020366663 0.0020520494 -0.14279482 -0.26247346
0.07117852 -0.13062021 0.010795814 -0.16243832 -0.19491266 -0.0037575213 -0.20422538 -0.16397417
-0.03494137 -0.21598828 -0.09487974 -0.22446816 -0.16981693 -0.05310405 -0.05252463 0.002046877
0.03654653 0.27028736 0.2993059 0.24325432 -0.044794045 0.22088175 -0.042067803 -0.2901547
-0.16411527 -0.12660155 0.21085626 -0.020380553 -0.3307409 -0.24766028 -0.008861207 0.23293127
0.4258648 0.14043058 -0.23463787 -0.14080176 -0.031697158 0.039002288 0.13445477 0.14473821
-0.068288006 0.3647666 0.23806477 0.045797296 -0.06484756 -0.014123651 0.010190847 0.32537743
0.601621 0.4749717 0.2654271 -0.0142883565 0.22521214 0.5387772 0.5351665 0.37440068
-0.11961894 -0.432124 -0.38975254 0.038020857 0.18304522 0.12739888 0.069790125 -0.06316107
-0.09070248 -0.108766615 -0.030879138 -0.10402633 -0.02801902 0.039982606 0.07272914 -0.14852865

bias f4 [20]
00000000: 08b7 d23d 6ce7 e43d 68a9 1abd 113b 093e
00000010: c832 053e bdfd 053d eb1c 393c 8184 66bd
00000020: a22b 013d 4066 00bd 3d35 7ebd 7675 ff3d
00000030: 6cac 3f3e a66c 8a3b 25dd 3f3d ecd9 803c
00000040: 4504 803d c906 18bd 0cf8 cb3c bea5 0d3d
0.10288817 0.11176953 -0.037759215 0.13401438 0.13007653 0.032712687 0.0112983985 -0.05627871
0.031535752 -0.031347513 -0.06206249 0.12473576 0.18718117 0.0042243777 0.04684176 0.015728913
0.06250814 -0.037115846 0.024898551 0.034581892

weight f4 [50, 320]
00000000: aa16 2abe 59c1 1ebe d575 4e3d ecd6 d03c
00000010: 74df bf3d b7e1 9fbe ef56 8abe d50d 03bd
00000020: 55f3 a23e d160 e83d 27b0 e8bc ee78 1abe
00000030: c6ec 493d feb5 933d af3d 2e3e 670d 293d
00000040: 8d67 3dbc 07ff b53d 086b 1a3e dc2f 2bbd
00000050: 4091 8a3c 6e68 42be 7663 7b3c 13d3 a23d
00000060: 91a2 efbc e7d1 0bbe bc2d 8dbe be58 e73d
00000070: 3e81 163c 5a20 873e 4615 7fbc 6a0c 9bbd
00000080: d41e 2bbd c189 4ebc 3bff 233b f9af 663d
00000090: 1ea9 713c 2d2a 143d 4de4 02bd 2c81 383d
000000a0: 18e9 473d b731 a83b d809 9f3c 9456 553d
000000b0: ef76 67bd f705 6fbd 80f1 973c 57e5 a8bc
000000c0: 8059 f0bc 881a aabc 28d1 103e fe65 dbbc
000000d0: a0a5 c2bc db02 bf3a b155 87bd 460d a63d
000000e0: 8849 2fbb 161d 683d 5e38 c1bd 3976 86bd
000000f0: e344 3a3d 9e27 623d 20ce 733d b1e0 7ebd
00000100: 8883 4a3c 35db d43c 61e6 c3bc 952f cfbc
00000110: 6fce cbbc 85df 5b3d 0f1c 273d 352d 3dbd
00000120: 98bc 02bc 1216 15be 98b8 ee3c cd7a 0d3e
00000130: c824 b13d 5fe9 cebc 885f e8bc 0501 893c
00000140: 40eb f03b 6ce5 6cba b50d 1abe e96c 5cbd
00000150: 61d9 7a3d d363 2c3c 2ba5 65bd f9b6 3ebe
00000160: b04b c03b 80c1 ab3d b5bc 153e 985e fb3d
00000170: 3b60 07bd 57b0 f4bd 203b 0ebd ac27 8f3d
00000180: a6a5 2c3d 2429 3e3d 06ff 8fbc b4a7 853c
00000190: 6417 463d 3858 0ebd c0d7 053a e844 663c
000001a0: f083 5ebb 2017 afba 30e9 e33c b20e 103d
000001b0: 6849 823c 4ba3 64bd 706d 6abc 244d 873c
000001c0: 08d8 793d 72e4 693d 2eb2 87bc 24d0 883d
000001d0: 2974 0abd 18f4 d2ba 01f8 a03c bd31 2e3d
000001e0: 3ae9 39bc 2b77 3ebc b48a 053d 6a2e 8c3d
000001f0: 5c30 adbc f35d 623d 310f 72bc 38a6 aabb
00000200: aaee 26bc 149d 18be 00ea 32bd 857c 31bc
00000210: 96d0 08bd 1a14 aabd afae f8bd 7b34 7fbd
00000220: f6bb cdbc 97b0 283e 324b f43d 60f3 0ebd
00000230: ff5d 9d3b b0ec 7d3c ffd7 8a3d 9de0 223e
00000240: ebc5 2cbd b0ad b23d 364e 843d 20b7 a63d
00000250: 0a0c 303a 4aaa 50bc aa5a 663e 1e28 ebbc
00000260: d9ab 2e3d cdeb bfbd eb3a d1bd dbaa ab3d
00000270: 95f0 c0bb 757c 4ebd ba44 3abd a6c5 983c
00000280: af23 bdbd be0e e03d a78b 463c d5a6 5e3d
00000290: 480c dfbb 088f b2bd cd26 123e 86d9 59bc
000002a0: d549 773d 1e2c ca3c 0c6f dbbb 851a eebc
000002b0: 130b 48bd 5930 edbd 11ad f0bd d010 f13b
000002c0: 04e9 a63c 3693 db3c 1153 c93d e8da b5bd
000002d0: d3aa b7bd c3ae b9bd 1fd3 6c3d 2439 ae3d
000002e0: 16ec dbbc ced3 9bbd 10f8 2ebe 0c59 b83c
000002f0: a82a 2d3c 4864 3b3e f3ad 983c c5c2 7cbd
00000300: 6731 87bb 0536 80bd 4b5e 1f3d 3a7b 7fbd
00000310: bbb8 833d 026c a53d b30e 5fbd 0264 2ebc
00000320: 2056 0abc 1d7e aebc 9edd b23d a387 a93d
00000330: d69f abbd f5f8 613c 3cbb 1abd a5d1 133d
00000340: f213 17bc 900c 053e 498c afbc 8f5b 6d3d
00000350: f6e6 99bd ddbb d6bb 93f9 f13d 8a5d cf3d
00000360: f9d3 203d 6917 e2bd 1f65 563d eb73 e63d
00000370: ce6a 893d a2c9 643c 012a f3bd f511 90bd
00000380: 1168 4bbc 3c6b e63d 64c2 383d 7665 8cbc
00000390: e0c8 e0bd aa43 97bd 608d fa3d 968f 363d
000003a0: fa44 b13d 6980 9ebd 46bb 07be 7353 713d
000003b0: 71e8 243e 6bf4 9a3d b670 a4bc 01cc 08be
000003c0: 9153 5ebd 009a 6d3a 90e7 14bb 5e1c 48bd
000003d0: dc8c 8f3c 0e03 aebc 3635 a5bc 0c0c ef3c
000003e0: 00f5 203c 3694 c6bc f1e1 3bbd 502c f13c
000003f0: c88e 8c3c 54c6 10bc e6d0 5e3d 6c64 11bd
-0.16610208 -0.15503444 0.050405342 0.025493108 0.09368792 -0.31226894 -0.2701945 -0.031995613
0.31826273 0.11346591 -0.028404308 -0.15085194 0.04929807 0.07212447 0.17015718 0.041272547
-0.011560333 0.08886533 0.15079892 -0.04179369 0.016914964 -0.1898515 0.015343538 0.079504155
-0.029252322 -0.1365429 -0.27573955 0.11296223 0.009186087 0.2639187 -0.015569037 -0.07570727
-0.041777447 -0.012606085 0.0025023955 0.056320164 0.014749793 0.036173034 -0.031956006 0.045045063
0.04880628 0.0051328796 0.019413874 0.05208452 -0.05650991 -0.058355298 0.018547773 -0.02061717
-0.029339552 -0.020764604 0.14142287 -0.026782032 -0.023760617 0.0014572995 -0.06608141 0.081080005
-0.002674671 0.056668364 -0.09434579 -0.06565518 0.04547585 0.055213563 0.059522748 -0.062226
0.012360461 0.025983432 -0.023913564 -0.025291244 -0.024878709 0.05367996 0.040798243 -0.04618569
-0.007979535 -0.145592 0.029140756 0.13816376 0.086495936 -0.025257764 -0.028365865 0.016724119
0.0073522627 -0.0009036872 -0.15044291 -0.053814802 0.061242465 0.010521847 -0.05606572 -0.18624486
0.0058683977 0.083865166 0.14622767 0.12273902 -0.033050757 -0.11947697 -0.034724355 0.06989989
0.042150162 0.046425954 -0.01757766 0.016315319 0.04836215 -0.0347521 0.00051056966 0.0140545145
-0.0033953153 -0.0013358332 0.027821153 0.035170265 0.015904143 -0.05581979 -0.0143083185 0.016516276
0.06099704 0.057102628 -0.016564455 0.06680325 -0.033802185 -0.0016094474 0.019649507 0.042527903
-0.011347109 -0.011625092 0.03260298 0.0684479 -0.021141224 0.05526538 -0.01477413 -0.005207803
-0.010188738 -0.1490367 -0.04368019 -0.01083291 -0.033402048 -0.08304615 -0.12142693 -0.06230591
-0.02511404 0.16473614 0.11928405 -0.03490007 0.004802465 0.015498325 0.06779479 0.15905996
-0.042180937 0.087245345 0.0646023 0.08140397 0.0006715661 -0.012735913 0.22495523 -0.028705653
0.042644355 -0.09371147 -0.10216316 0.083821975 -0.0058880546 -0.05041166 -0.0454757 0.018648934
-0.09235322 0.10940312 0.012118257 0.054358322 -0.006806884 -0.08718687 0.14272614 -0.013296491
0.060373146 0.02467924 -0.0066965874 -0.02906538 -0.048838686 -0.11581487 -0.1175176 0.0073567405
0.020374782 0.026803594 0.09830297 -0.08879644 -0.08968129 -0.09066536 0.05781853 0.085069925
-0.026845973 -0.07608758 -0.17086816 0.022503398 0.010569252 0.18299973 0.018637633 -0.061709184
-0.0041257623 -0.062603034 0.038908284 -0.062373377 0.06431719 0.080772415 -0.054457378 -0.010643961
-0.008443385 -0.02130037 0.087336764 0.08277824 -0.08380096 0.013792266 -0.037776217 0.036088604
-0.009221064 0.12993073 -0.021429198 0.057948645 -0.075147554 -0.0065531568 0.11815181 0.10125263
0.039264653 -0.110396214 0.05234253 0.11252578 0.067098245 0.013964089 -0.11873246 -0.07034675
-0.012414948 0.11250922 0.04510726 -0.017138224 -0.10975814 -0.07385953 0.122339964 0.044570528
0.08655734 -0.07739336 -0.13255033 0.058917474 0.16104294 0.0756615 -0.020073276 -0.13359071
-0.054278914 0.00090637803 -0.002272103 -0.048855178 0.017523222 -0.021241691 -0.020166975 0.02918055
0.009824038 -0.024240594 -0.04586977 0.029440075 0.017157927 -0.008836348 0.05439844 -0.03549616

bias f4 [50]
00000000: 3cc5 073e 2047 323e 1682 0e3d d528 0a3e
00000010: 838f 1a3d 06bf 523e e4c4 fb3d 210a 023e
00000020: 3bf3 003e c5ef 9d3e 8d9f 6c3d 0246 f43d
00000030: ecff 3c3e d9f0 803e 3ed0 703e f7c0 493e
00000040: b0b0 d63d 2c11 4c3d c66a 593e 83f2 6b3e
00000050: 07ad a2bc d69e 983d f129 e73d 6992 f53d
00000060: f828 383e 70a4 bc3d b4a6 3a3e f377 853c
00000070: 9701 fd3d 3ac6 db3d 6c67 bd3d e6ca 343e
00000080: d905 453b ef99 2d3e 2a09 623d 42ee 083e
00000090: 07fc 163e c304 2c3e 9d58 1fbd bfcb bb3d
000000a0: d3ae bb3d ff4c ca3d f3c6 593e 1c3e 013d
000000b0: a295 0a3e e6a2 133e 39d0 283e a123 7a3e
000000c0: 3504 043e 0d58 813e
0.13258833 0.17409945 0.03479203 0.13492139 0.03773452 0.20580682 0.12293413 0.12699176
0.12592785 0.30846992 0.057769347 0.119274154 0.18457001 0.25183752 0.23516938 0.19702516
0.10482919 0.049821064 0.21232137 0.2304173 -0.019857896 0.074521706 0.112872966 0.11990816
0.17984378 0.092110515 0.18227655 0.016292548 0.12353819 0.10731168 0.09248242 0.17655525
0.00300633 0.16953252 0.05518452 0.13372138 0.14744578 0.16798691 -0.038902868 0.09169721
0.091642044 0.09877967 0.212673 0.031553373 0.13533643 0.1441761 0.1648568 0.24427654
0.1289223 0.2526249

weight f4 [10, 50]
00000000: 1484 9b3e 9933 84be 86f6 383e daf5 223e
00000010: 612c 7a3d 2a4f 1f3e 13e4 08be 30ca 543e
00000020: c05e 763e bc10 b2bd 5be0 9f3d aa41 acbe
00000030: 5a15 b5be 86a1 2b3e c283 45be 1727 abbe
00000040: ab21 c93d d087 bf3d ed16 b7be 9b97 cfbd
00000050: 5e71 533e 1010 48bd 4168 143e 42a3 1d3e
00000060: 5fd9 cd3d 98d9 ccbd 0e8b b1be 5a6d 373e
00000070: 9454 51be 7493 a63d 12af bfbe 6034 39be
00000080: 1b0f d3bd 98b2 efbd 8e68 1b3e 63c0 48bd
00000090: a584 5e3d b977 bdbe ec15 dfbd 6f0a 7cbe
000000a0: de75 bd3d bcf2 073e 5aa1 03be 1b79 86bd
000000b0: 62d1 473e be1d 02bf 0fba 443e 82da 663e
000000c0: 51bf 2e3e d155 3abe 5d2b 9abe 9d96 153e
000000d0: e7a8 99be a0b0 323e 7f9c 2bbe ecc5 853d
000000e0: b44d cfbd a5e1 ac3d 75f6 a4be 7c66 7f3e
000000f0: d899 8abe 17c7 ad3d f058 44bd 7b63 1c3e
00000100: a185 413e 3150 b03e 6149 a53d f887 b1be
00000110: a36e 453e 3b13 173e 9dc8 133e 797f 9ebe
00000120: fce4 f13d 6da2 81be 2689 8b3e 41ce 77be
00000130: c559 a5be 6ea9 a2be 8027 1a3e 3f8c 9abd
00000140: 301f bfbe a989 563e d7a4 e33b 53f6 033e
00000150: 78dc b2bd 1ac0 1abc b4ca 1f3d 48be 4a3e
00000160: e04b 9dbd 403e e9bd f072 5cbe d210 e23d
00000170: 627f 253e 8338 98bd 743b dabd 3342 6a3d
00000180: b193 a1be ce69 9d3d c388 7cbe 2ed8 373e
00000190: 457c a13e bb86 413e 273b 323e 437a f8bd
000001a0: 5fbc 83bd 28d5 cdbe 2b03 6d3e a031 1dbe
000001b0: 040b 54be 4b19 2dbe ba0e debe 7019 023d
000001c0: 07b2 a4bd 3940 6ebe 2918 20be f8a1 a4bd
000001d0: ee19 133e 3eac 093d 48ce a2be 07b8 8dbe
000001e0: b3be 3d3e 7c3f 7f3e 1b4a 2d3e fbb1 4b3e
000001f0: 48a5 5bbe 8fff 243e 8705 79be 516d 2f3e
00000200: 973c 613e c342 e93d 18df 4a3e 607f cdbd
00000210: 71d1 6b3c d82a 1e3e 3195 473e 9a95 6dbe
00000220: b595 893d 042b e4bd d404 96bd f980 073c
00000230: fe24 89bc b819 1f3e 3060 043e 978a 10be
00000240: 15b8 e8bd 6f1c 17be bf4f 68bd 2960 8fbe
00000250: 726b b4be 1927 d7be bdde c2be 0f8d a2be
00000260: 4e9b 113e 512d 0f3e b993 9fba d258 6bbe
00000270: f582 38be 9a91 073e 2cc4 cbbe e4fd 85bd
00000280: 4e69 543d aa80 b1be 7fc5 843e dbe8 153e
00000290: 3e8e 673e 87c9 f43d f976 f93d 7ad6 cc3d
000002a0: 2a97 d5bd 92f7 4abe ea07 66be 3957 21bd
000002b0: 7371 1b3e 9215 573e b0c8 b3be 7c3a 193e
000002c0: ce2b e9be 084b db3d fbce 80be 09a6 f93d
000002d0: 8986 043e 8132 3d3e e0c4 84bd 3645 87be
000002e0: f106 283e e1c4 7d3d 82aa b93d 427b 76be
000002f0: e1b2 e53c 0008 65be aab4 e1be 76e7 d2be
00000300: 40af af3d 78db 9ebd dd97 80be 6f0b fb3d
00000310: 1ba3 0ebf 1017 3f3e 20f1 25be a83e 233e
00000320: d0f5 9d3e 086f 37be a4a1 393e 0a62 163e
00000330: a21a 95be 7d97 bbbe 0f0e 9cbd fd44 4a3d
00000340: b3a3 e23d f058 55be af2b 18be b1fc 083e
00000350: 99c3 c3be dc16 b9be fae8 26ba 6c39 ac3e
00000360: 1d60 8ebe aa84 a0be 4066 523e 998f 243e
00000370: 9792 22be 00d5 51be 68a4 1d3e 8f9b 3cbe
00000380: 856a 47bd 602a 10bd 0084 5fbe 9a4a 293e
00000390: a813 24be a491 003e baa6 263e e22a 3f3e
000003a0: 0c73 afbd 18a9 1e3e bf77 8bbe e8af 063e
000003b0: 8367 bbbe 16f4 5b3e 8399 dc3c b604 25be
000003c0: 9631 693d a37d 373d 3330 013e baf6 98bd
000003d0: b293 733e 498c de3a 22f5 873e 7b44 00bf
000003e0: 97c7 68be 3f20 e3bc ab04 36be f228 3bbe
000003f0: 0168 59be 8be4 f53d b7df f73b 9b76 493e
0.30374205 -0.25820616 0.18062791 0.15914097 0.06107748 0.15557542 -0.13368253 0.20780253
0.24059582 -0.08694598 0.07806464 -0.33643848 -0.35367852 0.16760835 -0.19288543 -0.3342826
0.09820875 0.09352076 -0.35759678 -0.10136338 0.20648715 -0.048843443 0.14492895 0.15394309
0.10051226 -0.1000244 -0.34676403 0.17912808 -0.2044242 0.08133593 -0.37438256 -0.18086386
-0.103056155 -0.11703986 0.15176603 -0.0490116 0.05432572 -0.37005404 -0.10892853 -0.24613355
0.09250997 0.1327619 -0.1285452 -0.06566068 0.19513467 -0.5082663 0.192116 0.22544292
0.17065169 -0.18196799 -0.3011121 0.14608236 -0.30011675 0.1745019 -0.16758917 0.06531891
-0.101222426 0.08441476 -0.32219282 0.24941438 -0.27070498 0.08485239 -0.04793638 0.15272324
0.18898632 0.3443618 0.080706365 -0.34674048 0.19280486 0.1475343 0.14431997 -0.3095663
0.118112534 -0.25319234 0.27253073 -0.24199773 -0.3229505 -0.3176989 0.1505413 -0.07546281
-0.37328482 0.2095095 0.0069471407 0.12886934 -0.08733457 -0.009445215 0.039011672 0.19799149
-0.07680488 -0.11388826 -0.2152822 0.110383645 0.16161874 -0.07432654 -0.10655871 0.05719204
-0.31557992 0.07686196 -0.24661545 0.1795356 0.31540123 0.18899052 0.17405377 -0.121326946
-0.06432413 -0.40201688 0.2314574 -0.15350962 -0.20707327 -0.1690418 -0.4337061 0.03176254
-0.080417685 -0.23266686 -0.15634216 -0.080387056 0.1436536 0.03361153 -0.31798005 -0.27679464
0.18529777 0.24926561 0.169228 0.19892113 -0.21449769 0.16113113 -0.24318515 0.17131545
0.2199577 0.11389687 0.19811666 -0.100340605 0.014393196 0.15446031 0.19490506 -0.232016
0.067180075 -0.11141017 -0.0732514 0.008270496 -0.016741272 0.15537155 0.12927318 -0.14115368
-0.11363236 -0.1475694 -0.056716677 -0.28003052 -0.35238224 -0.42022017 -0.3806056 -0.31748244
0.142194 0.1398213 -0.0012174762 -0.22983101 -0.18018706 0.13239136 -0.39798105 -0.065425664
0.05185824 -0.34668475 0.25931928 0.14639609 0.22612855 0.11952501 0.12180895 0.10001846
-0.10429223 -0.19821003 -0.22463956 -0.039389823 0.15179996 0.21004322 -0.3511405 0.14963716
-0.45541233 0.107076705 -0.25157914 0.12189872 0.12941946 0.18476297 -0.064828634 -0.2641999
0.16408898 0.061955336 0.09065725 -0.24070457 0.028039398 -0.22366333 -0.44083148 -0.41192216
0.08578348 -0.07756704 -0.25115862 0.1225804 -0.5571763 0.18661141 -0.16205263 0.1594187
0.30851603 -0.17913449 0.18128067 0.14685836 -0.29121882 -0.36639014 -0.07619869 0.0493822
0.110663794 -0.20834708 -0.14860414 0.13377644 -0.38235167 -0.36150253 -0.00063671137 0.3363756
-0.27807704 -0.31351215 0.20546818 0.16070403 -0.15876232 -0.2049141 0.15394747 -0.18418716
-0.04868557 -0.035196662 -0.21827698 0.16532364 -0.16023123 0.12555557 0.16274539 0.18668702
-0.08566865 0.15494192 -0.27239797 0.1315304 -0.3660241 0.2147983 0.026928669 -0.16115078
0.056932054 0.04479755 0.12616043 -0.07468934 0.2378681 0.0016979064 0.2655421 -0.5010449
-0.22732387 -0.027725337 -0.17775218 -0.18277338 -0.2123108 0.12006482 0.0075645107 0.1967415

bias f4 [10]
00000000: 155f 12bd 2579 d83d 5f20 d0bd 46a3 263e
00000010: 2cc3 eb3d 95ff 673d ff83 4d3d 5321 b23d
00000020: 5188 8d3d fff5 56bc
-0.03573521 0.105699815 -0.10162424 0.16273221 0.115118355 0.056640226 0.05017471 0.08697762
0.06910766 -0.0131201735
