models/conv2_layer_28x28.pt (torch_old, 101254 bytes, 8 tensors)

weight f4 [10, 1, 5, 5]
0.28160042 0.24262221 0.40002742 0.21929497 0.18006642 0.34115064 0.15465562 0.19510886
0.08819546 0.11747447 -0.16109288 -0.06529397 -0.23742762 -0.2856961 -0.10917341 -0.14564171
-0.3920304 -0.35703894 -0.02325509 -0.19454296 -0.25475124 -0.030751249 -0.16118138 0.04578208
0.0634472 0.21861658 0.016165521 0.13733041 0.27221984 0.06563795 0.15542758 0.35199848
0.18767418 0.325079 0.17603289 0.007724477 0.21339762 0.31525666 0.18093958 -0.13775569
0.09978298 -0.24063559 -0.04220642 -0.30668038 -0.20911852 -0.20256367 -0.17621502 -0.4838871
-0.49223754 -0.4594866 -0.23193248 -0.0130037265 -0.08642622 0.22564301 -0.097018175 -0.10521491
-0.23567507 0.030411124 0.22007267 0.2247575 0.01430615 -0.2716901 -0.042865492 0.2958431
0.2347958 -0.06398141 -0.07678629 -0.06221883 0.03954411 0.11269871 -0.13933012 -0.11381607
0.09453108 -0.15997677 0.23256016 -0.115950234 -0.28241497 -0.35401827 -0.13098277 -0.024664212
-0.18633813 -0.45014006 -0.2986026 0.18552963 0.018421575 -0.44710213 -0.27613375 0.16879122
0.2706768 0.45863056 -0.31193167 -0.16829291 0.38397884 0.32590696 0.326278 0.0018315847
0.032123074 0.12266766 0.2170845 0.47989398 -0.44062456 -0.35998434 -0.36379305 -0.14935748
-0.3259382 -0.37427035 -0.23998363 -0.31499833 -0.23124911 -0.24236658 -0.39659658 -0.027828502
0.31215975 0.26391873 0.19344027 -0.13983482 0.21577616 0.42505318 0.40148684 0.112793475
0.15206416 0.44801053 0.24184524 0.57240933 0.26514187 -0.040634245 -0.34448627 -0.2590289
-0.42430797 -0.072062574 -0.12431551 -0.32677794 -0.05674159 0.02828973 -0.20828053 -0.07699931
0.21946022 -0.15454164 -0.03079776 -0.076437585 0.24964191 0.35388875 0.2539884 0.13003203
0.13243261 0.054865364 0.26006088 0.40409046 0.18631493 0.17562118 -0.1887202 -0.37883374
-0.09406226 -0.22152545 0.009166622 -0.2605472 -0.32147852 -0.15193701 0.28788748 0.34309205
-0.36763656 0.042643953 0.13081689 0.16678768 0.37427977 -0.39742705 -0.09494107 0.36112922
0.38778248 0.5494017 -0.23645858 -0.18072006 -0.0025525761 0.21425958 0.07844736 0.04299977
-0.057576478 0.16078585 -0.086492404 0.17809285 0.10956132 0.035778183 -0.038334627 -0.10856421
0.22318086 -0.13794492 -0.273429 -0.022892231 0.0063556274 0.30893463 -0.15712035 -0.2395233
-0.20598346 -0.04940436 0.37078142 -0.035640094 -0.35525775 -0.18199536 0.10063755 0.3735959
0.24600996 -0.061559834 -0.24800962 -0.10696126 -0.10895027 0.20389597 -0.092628814 -0.34467337
0.012368212 0.077198975 0.24832931 0.003906308 -0.26546386 -0.14609107 0.018785119 0.19228242
-0.061449964 -0.08157705 -0.25368688 0.19851585 0.21574803 0.2713754 -0.2635862 -0.21111134
0.3552442 -0.19399133 -0.14288591 0.014863324 -0.055002786 -0.15547891 -0.0016371814 0.054216757
-0.040783737 0.047943376 -0.25103188 0.1352551 -0.18866459 -0.0042032907 -0.07215302 -0.2124183
0.005186764 -0.04323899 0.062074166 -0.1522381 -0.18690799 0.44115564 0.24189343 0.32074633
0.31130445 0.26762897
00000000: ee2d 903e f571 783e 65d0 cc3e dc8e 603e
00000010: 5563 383e 4cab ae3e 0b5e 1e3e 9eca 473e
00000020: d29f b43d 7496 f03d 88f5 24be d8b8 85bd
00000030: 3a20 73be c246 92be 4f96 dfbd 1a23 15be
00000040: 35b8 c8be cfcd b6be 7581 bebc 4536 47be
00000050: c16e 82be 0bea fbbc bb0c 25be fe85 3b3d
00000060: 9bf0 813d 06dd 5f3e 8e6d 843c 58a0 0c3e
00000070: 6660 8b3e 316d 863d 6828 1f3e 2539 b43e
00000080: a92d 403e c170 a63e f741 343e 9c1d fd3b
00000090: e884 5a3e 5269 a13e 3a48 393e d40f 0dbe
000000a0: 055b cc3d 2d69 76be a4e0 2cbd 3605 9dbe
000000b0: 2a23 56be da6c 4fbe b671 34be 0dc0 f7be
000000c0: 8f06 fcbe d441 ebbe b57f 6dbe 950d 55bc
000000d0: 3b00 b1bd f60e 673e 77b1 c6bd ea7a d7bd
000000e0: ce54 71be c020 f93c bb5a 613e d526 663e
000000f0: 5864 6a3c f71a 8bbe ba93 2fbd bf78 973e
00000100: 4f6e 703e af08 83bd 2142 9dbd 2cd9 7ebd
00000110: 01f9 213d 95ce e63d 8eac 0ebe 6618 e9bd
00000120: 8399 c13d f3d0 23be 4024 6e3e 5177 edbd
00000130: b298 90be e241 b5be 5920 06be 9a0c cabc
00000140: 6ccf 3ebe c278 e6be 71e2 98be 7bfb 3d3e
00000150: d8e8 963c 92ea e4be 6761 8dbe 9bd7 2c3e
00000160: 2696 8a3e a0d1 ea3e 82b5 9fbe fa54 2cbe
00000170: e098 c43e 47dd a63e e90d a73e c911 f03a
00000180: 7c93 033d 2f39 fb3d 664b 5e3e aab4 f53e
00000190: 8b99 e1be de4f b8be 1543 babe 2bf1 18be
000001a0: 5fe1 a6be 5da0 bfbe 45be 75be 7647 a1be
000001b0: 91cc 6cbe f22e 78be b50e cbbe 99f8 e3bc
000001c0: 67d3 9f3e 5b20 873e 3515 463e dc30 0fbe
000001d0: 6df4 5c3e 92a0 d93e af8f cd3e 4400 e73d
000001e0: b5b6 1b3e a361 e53e 47a6 773e 6b89 123f
000001f0: adc0 873e 1870 26bd 8160 b0be 709f 84be
00000200: e53e d9be 8b95 93bd 2199 febd 704f a7be
00000210: df69 68bd ddbf e73c 7e47 55be d0b1 9dbd
00000220: 2eba 603e 2a40 1ebe 954b fcbc 4f8b 9cbd
00000230: 21a2 7f3e e830 b53e c40a 823e 1e27 053e
00000240: 6a9c 073e 81ba 603d b326 853e f2e4 ce3e
00000250: 57c9 3e3e 0ad6 333e de3f 41be 7ff6 c1be
00000260: b7a3 c0bd 91d7 62be 992f 163c 7166 85be
00000270: d598 a4be 6095 1bbe fd65 933e c3a9 af3e
00000280: dc3a bcbe 6dab 2e3d ddf4 053e 64ca 2a3e
00000290: 99a1 bf3e 8f7b cbbe 7770 c2bd eee5 b83e
000002a0: 6d8b c63e 97a5 0c3f 3322 72be ae0e 39be
000002b0: 1f49 27bb dd66 5b3e 02a9 a03d 8720 303d
000002c0: 50d5 6bbd 0ca5 243e ee22 b1bd f95d 363e
000002d0: af61 e03d 258c 123d c504 1dbd ea56 debd
000002e0: 8689 643e 6f41 0dbe e3fe 8bbe 7d88 bbbc
000002f0: de42 d03b ae2c 9e3e 28e4 20be 9945 75be
00000300: 54ed 52be 3a5c 4abd 10d7 bd3e 59fb 11bd
00000310: 58e4 b5be fe5c 3abe 0f1b ce3d f647 bf3e
00000320: 09ea 7b3e 2a26 7cbd 3cf6 7dbe 810e dbbd
00000330: 5221 dfbd 1bca 503e 2db4 bdbd 0779 b0be
00000340: 0ba4 4a3c 7f1a 9e3d 0a4a 7e3e 7d00 803b
00000350: e1ea 87be e698 15be 40e3 993c afe5 443e
00000360: f5b2 7bbd de11 a7bd 3fe3 81be bd47 4b3e
00000370: 0ded 5c3e b7f1 8a3e c5f4 86be 922d 58be
00000380: 91e2 b53e aaa5 46be af50 12be 4d85 733c
00000390: 9a4a 61bd dd35 1fbe b196 d6ba 6412 5e3d
000003a0: d90c 27bd 4660 443d 4087 80be 5080 0a3e
000003b0: 4a31 41be c2bb 89bb f6c4 93bd 2f84 59be
000003c0: bbf5 a93b 5e1b 31bd 7b41 7e3d 4ee4 1bbe
000003d0: cf64 3fbe 27df e13e e9b2 773e dd38 a43e
000003e0: 4c63 9f3e aa06 893e

bias f4 [10]
0.1613921 0.055167675 0.17756824 0.21343689 0.22306722 0.0070631467 0.16702163 -0.037324343
0.13198707 0.017670676
00000000: f843 253e 80f7 613d 73d4 353e 338f 5a3e
00000010: bc6b 643e f871 e73b b807 2b3e 69e1 18bd
00000020: 9e27 073e 18c2 903c

weight f4 [20, 10, 5, 5]
0.14275841 -0.040463172 -0.15211892 0.057149183 0.31868267 0.116737135 -0.003846637 0.05369698
0.19291398 0.18248302 -0.073123194 -0.051395107 -0.23692171 -0.40392548 -0.24063012 -0.15006655
0.0185408 0.10591975 -0.048969895 -0.17746173 -0.115605995 0.07034845 0.0185033 0.043369465
-0.020311832 0.053446908 -0.22449452 0.06333886 0.21736966 0.08059253 -0.10540134 -0.3200044
-0.14968766 -0.15153366 -0.04864298 -0.061705664 -0.17077999 -0.2708931 -0.2080913 -0.074354924
-0.08017014 -0.110559486 -0.04607992 -0.06697746 -0.13407414 -0.016742982 0.023616137 0.06510048
0.092936575 0.08345587 0.0072658844 0.04261579 0.12246544 0.07970116 0.25191858 0.124653526
0.014967773 -0.14859258 -0.16732283 0.16507556 0.15580201 0.054426227 -0.016202372 -0.23931247
0.0016452292 0.027055021 0.15363963 0.06988432 -0.18400054 -0.22380157 -0.0175933 0.038162302
0.14270978 0.08780439 -0.1842265 -0.019732963 0.16483365 0.08793395 -0.08782406 0.03463163
0.09519651 0.044306166 -0.07082008 -0.15824655 0.13863203 0.044693016 0.101704314 -0.04618976
-0.06907373 -0.04264251 -0.023410454 -0.0470232 -0.09087236 -0.15552753 -0.13907163 0.007355202
-0.013484351 -0.047776468 -0.024542393 -0.005669735 -0.08730905 0.04819614 0.098217115 -0.12574871
-0.10830751 -0.057721537 0.028203502 0.025603684 0.0005955374 0.14306723 -0.057657097 0.061121754
0.1932021 0.3153128 0.20558815 -0.0229894 -0.03316188 -0.072917305 0.07259038 0.18158026
0.11183733 0.18160793 -0.011674637 -0.10662256 0.051081236 -0.14638373 -0.0091201095 0.027035704
-0.08150532 -0.1386049 -0.117706984 0.057267703 0.015280567 0.09151571 0.030712208 -0.12985195
-0.028402153 0.13352281 0.21946448 0.19082035 -0.0066368715 -0.14033088 0.008843007 0.122837804
0.23519848 0.14949036 0.08165055 -0.03926098 -0.034608707 0.11965714 0.019832997 0.10398572
0.09429887 -0.09486167 0.10803718 0.07532261 0.10788285 -0.16822524 -0.2830872 0.08779512
0.07639291 0.09701267 -0.053180262 -0.13374996 -0.06659674 0.020940898 0.028438432 -0.0056974706
-0.021055121 -0.22591963 -0.06951258 0.013891342 -0.060821414 0.12366781 0.015509849 -0.12293928
-0.15834966 -0.24761176 -0.12478559 0.1822661 -0.064389035 -0.13563244 -0.32789066 -0.2953529
0.15328133 -0.1494567 -0.14721636 -0.33649796 -0.5492088 -0.1368776 -0.28919536 -0.14132105
0.005110432 -0.32643312 -0.09856516 -0.24961415 -0.20138897 -0.07252812 0.04129704 -0.05191507
-0.020865673 0.073831156 0.0050169034 0.011723494 -0.007695652 0.12711416 -0.26849237 -0.036447164
0.097234145 -0.08599238 0.15565553 -0.3238209 -0.00066508306 -0.031224012 -0.1257755 0.21538432
-0.18893878 -0.30037093 -0.15011501 -0.17260523 0.2301121 0.07776565 -0.25469455 -0.27468753
-0.07736888 -0.18221658 -0.11115264 -0.008760099 -0.15033591 -0.23933783 -0.26324368 -0.07380515
0.26781446 0.18538591 0.03349157 -0.06013541 -0.057890978 0.12720205 0.19729394 0.11980665
0.08031421 -0.1082171 -0.14971006 0.03504036 0.1977544 0.19444224 0.14291419 -0.12944645
-0.134141 0.006024217 -0.017870665 -0.033102375 0.03475445 0.019524463 -0.022695402 0.016724434
00000000: 432f 123e b6bc 25bd 10c5 1bbe 4315 6a3d
00000010: 602a a33e e113 ef3d dc17 7cbb 5df1 5b3d
00000020: 3e8b 453e d4dc 3a3e 9dc1 95bd ad83 52bd
00000030: 9b9b 72be 52cf cebe be67 76be 0cab 19be
00000040: e0e2 973c 74ec d83d a894 48bd 87b8 35be
00000050: d6c2 ecbd d912 903d 3c94 973c 2ea4 313d
00000060: 0065 a6bc 25eb 5a3d e4e1 65be ceb7 813d
00000070: 2796 5e3e b20d a53d a8dc d7bd 9ed7 a3be
00000080: b947 19be a42b 1bbe dd3d 47bd 14bf 7cbd
00000090: f3e0 2ebe 80b2 8abe e315 55be 6547 98bd
000000a0: 3e30 a4bd 036d e2bd 4cbe 3cbd 7b2b 89bd
000000b0: bb4a 09be 9428 89bc a176 c13c 6753 853d
000000c0: 8855 be3d e9ea aa3d a816 ee3b e58d 2e3d
000000d0: 29cf fa3d 5d3a a33d 79fb 803e 594a ff3d
000000e0: 643b 753c a728 18be ad56 2bbe 9109 293e
000000f0: 908a 1f3e 09ee 5e3d d6ba 84bc 540e 75be
00000100: bba4 d73a 7ea2 dd3c b553 1d3e 831f 8f3d
00000110: a36a 3cbe 3d2c 65be d31f 90bc 1350 1c3d
00000120: 8322 123e cad2 b33d dfa5 3cbe 06a7 a1bc
00000130: 27ca 283e b716 b43d 1add b3bd e5d9 0d3d
00000140: 63f6 c23d 627a 353d 1e0a 91bd 620b 22be
00000150: 8ef5 0d3e 0610 373d 5a4a d03d 7931 3dbd
00000160: 8776 8dbd eaa9 2ebd 48c7 bfbc 669b 40bd
00000170: 4a1b babd 9c42 1fbe cb68 0ebe e803 f13b
00000180: 78ed 5cbc 42b1 43bd 210d c9bc 2fc9 b9bb
00000190: 16cf b2bd 5169 453d 0e26 c93d 45c4 00be
000001a0: 54d0 ddbd 6b6d 6cbd 080b e73c d1be d13c
000001b0: d71d 1c3a 3780 123e d929 6cbd ce5a 7a3d
000001c0: c5d6 453e ae70 a13e b385 523e 4454 bcbc
000001d0: c0d4 07bd ab55 95bd 44aa 943d 2df0 393e
000001e0: f80a e53d 6ef7 393e fa46 3fbc ee5c dabd
000001f0: 8f3a 513d 9ee5 15be 836c 15bc fb79 dd3c
00000200: 43ec a6bd 71ee 0dbe 5c10 f1bd 8a91 6a3d
00000210: 585b 7a3c 976c bb3d 2b98 fb3c e9f7 04be
00000220: a2ab e8bc 34ba 083e 4cbb 603e 6966 433e
00000230: 1d7a d9bb e6b2 0fbe 42e2 103c 6392 fb3d
00000240: dfd7 703e 0014 193e 6738 a73d 1fd0 20bd
00000250: dcc1 0dbd cd0e f53d cf78 a23c 77f6 d43d
00000260: c41f c13d d646 c2bd 9942 dd3d be42 9a3d
00000270: aff1 dc3d 3d43 2cbe cef0 90be eecd b33d
00000280: e373 9c3d 94ae c63d 8cd3 59bd c0f5 08be
00000290: df63 88bd 3f8c ab3c b7f7 e83c d9b1 babb
000002a0: ca7b acbc 7a57 67be 9d5c 8ebd 8398 633c
000002b0: e01f 79bd 8c45 fd3d 061d 7e3c 97c7 fbbd
000002c0: 6a26 22be f08d 7dbe 968f ffbd f7a3 3a3e
000002d0: 66de 83bd 3be3 0abe 49e1 a7be 7f38 97be
000002e0: c8f5 1c3e 2d0b 19be e3bf 16be 7649 acbe
000002f0: f398 0cbf a429 0cbe 6a11 94be 77b6 10be
00000300: 6975 a73b 3e22 a7be 88dc c9bd da9a 7fbe
00000310: e938 4ebe 9f89 94bd 1627 293d e5a4 54bd
00000320: 7dee aabc ca34 973d d664 a43b e613 403c
00000330: cf2b fcbb 372a 023e d577 89be 9f49 15bd
00000340: b222 c73d c61c b0bd 2a64 1f3e dacb a5be
00000350: f858 2eba 80c9 ffbc 4bcb 00be b58d 5c3e
00000360: 2b79 41be 38ca 99be c0b7 19be 6dbf 30be
00000370: 82a2 6b3e 9943 9f3d 5367 82be d8a3 8cbe
00000380: 9373 9ebd fc96 3abe ffa3 e3bd 8586 0fbc
00000390: a8f1 19be fa14 75be e0c7 86be 2827 97bd
000003a0: fa1e 893e ced5 3d3e 752e 093d 8c50 76bd
000003b0: 171f 6dbd 4141 023e 6c07 4a3e 305d f53d
000003c0: c77b a43d eda0 ddbd 984d 19be 7b86 0f3d
000003d0: 2180 4a3e de1b 473e 1958 123e 9c8d 04be
000003e0: 425c 09be cb66 c53b 8065 92bc 5b96 07bd
000003f0: af5a 0e3d c4f1 9f3c b5eb b9bc ae01 893c

bias f4 [20]
0.119074695 -0.049677588 0.1412419 0.020678703 0.15042363 -0.09018872 -0.008038639 0.04039365
-0.015816584 -0.023605797 0.1607031 -0.035425987 0.023518572 0.041841988 0.1328469 -0.06571657
0.02807813 -0.006660963 0.06962366 0.06539624
00000000: 6fdd f33d ba7a 4bbd b7a1 103e 6266 a93c
00000010: a708 1a3e ddb4 b8bd 7fb4 03bc d073 253d
00000020: c891 81bc f260 c1bc 5a8f 243e d71a 11bd
00000030: 05aa c03c 8162 2b3d 0509 083e 6996 86bd
00000040: 1b04 e63c 3544 dabb d996 8e3d 77ee 853d

weight f4 [50, 320]
0.08629584 -0.022985348 -0.06912857 0.037421666 0.048196893 -0.11655658 -0.15593782 0.009136418
-0.050220337 -0.035390865 -0.12083062 0.064636365 0.060329534 -0.052018974 0.3002844 0.057023082
0.0095145535 -0.0120319 0.012546538 0.06569699 -0.021852566 -0.040767085 -0.0480651 -0.008027264
0.02251651 0.005863567 -0.035598475 -0.05324272 0.02161625 0.023332946 -0.03876966 -0.028270453
-0.0031425012 0.016909204 -0.028821075 -0.054132693 -0.017395595 0.25000975 -0.14812161 -0.11271979
0.1061435 0.09013927 0.19497065 0.18584698 -0.11290345 -0.06499167 0.07212391 0.014601596
-0.055579398 -0.09331294 0.056963477 0.028000655 0.031637795 0.09122292 0.056386717 -0.16883437
0.098129526 0.09282612 0.025170133 0.23082341 0.03508153 -0.08827284 -0.0084425155 0.01632517
-0.0025368778 -0.08619793 0.0024927284 0.06813717 -0.031516474 0.15568122 -0.029935246 0.2099372
0.02026048 0.06806349 0.15449628 -0.010864203 0.007046763 -0.012074745 -0.028982809 -0.031471565
0.02228614 0.055489738 0.0784102 0.026844867 0.052437026 -0.06671775 0.05002803 0.022145161
0.033890586 -0.026206242 -0.0151562225 -0.0018570663 0.020647818 0.041555483 0.05696655 -0.06436016
-0.04231795 -0.034550283 0.03132519 -0.014477197 -0.031647477 0.023174174 -0.040373504 0.035141427
-0.02443245 0.017720707 -0.024601676 -0.02242222 -0.037339114 0.0029676668 0.04015053 -0.037592374
-0.030594202 -0.026517566 0.1174582 0.19866534 -0.0428461 -0.08053654 0.11780184 0.029427184
0.06058229 0.07241596 -0.1257546 -0.030143064 -0.0025128936 0.04616184 -0.06688748 -0.05738334
-0.04201545 0.034824185 0.0046334043 -0.0787035 0.04631965 -0.014179927 -0.07193195 0.04369842
-0.016531462 0.037502013 -0.019850772 -0.012828361 0.021942057 -0.01013284 0.044344112 -0.0036044498
-0.08750665 -0.11197239 0.0080248285 0.031173538 -0.1986062 -0.11131738 0.17770816 0.17169885
0.02969026 0.07688638 0.0624156 -0.0135950325 0.10509879 0.059073664 -0.166231 0.028823622
0.040352546 -0.050232325 -0.09826471 -0.056816716 -0.025639646 -0.035571724 -0.0780731 0.17530909
0.10734808 -0.11722049 0.12450506 0.02956226 -0.01045544 0.04795514 -0.015583513 -0.055012707
0.030738823 -0.046685584 -0.027246617 -0.049165733 -0.043358676 0.016459092 0.037876576 0.017802551
0.024582252 -0.042409748 -0.020902246 0.03755065 0.007162079 -0.003971463 0.03994343 -0.0052172267
-0.036605027 -0.081036255 -0.105140485 0.055467006 -0.09102247 -0.040338647 0.07329329 0.27523375
-0.068023495 0.064133614 0.09027697 -0.04192661 0.18218105 0.024310445 -0.04456475 -0.09688638
-0.004574597 -0.13145691 0.0044993684 0.10406102 -0.12312582 -0.06447923 0.25996184 0.02166742
0.14105365 0.07643565 -0.013350494 -0.013481961 0.16212653 0.024884729 -0.17252854 0.04591717
0.016308956 -0.10497446 0.12988798 0.13798063 -0.0097205555 0.08384314 -0.06852958 -0.020841135
0.08311298 -0.0042202766 -0.010069673 -0.009328092 0.07203525 -0.056348357 0.057059944 -0.12452772
-0.024800606 0.025231786 0.0036705332 -0.009464555 -0.1489539 -0.014903174 0.069237135 0.07881946
-0.037073873 0.061812967 -0.04622142 -0.06110327 0.07261446 0.028208224 -0.05138263 0.022267295
00000000: e0bb b03d c54b bcbc 4893 8dbd 7647 193d
00000010: 1b6a 453d 37b5 eebd 2aae 1fbe eab0 153c
00000020: d7b3 4dbd 03f6 10bd 0b76 f7bd 1260 843d
00000030: 1a1c 773d d911 55bd e0be 993e 0991 693d
00000040: eee2 1b3c 7221 45bc ff8f 4d3c 258c 863d
00000050: 2704 b3bc 63fb 26bd e9df 44bd c984 03bc
00000060: 8b74 b83c 2a23 c03b b5cf 11bd 0a15 5abd
00000070: 9014 b13c bc24 bf3c efcc 1ebd 7097 e7bc
00000080: 6cf2 4dbb 2c85 8a3c 2d1a ecbc 3eba 5dbd
00000090: 3581 8ebc 4701 803e 31ad 17be a2d9 e6bd
000000a0: c361 d93d f09a b83d 63a6 473e ac4e 3e3e
000000b0: ed39 e7bd 5a1a 85bd b3b5 933d 883b 6f3c
000000c0: 39a7 63bd db1a bfbd 8952 693d a161 e53c
000000d0: a296 013d 15d3 ba3d c2f5 663d ebe2 2cbe
000000e0: 22f8 c83d 9f1b be3d 9831 ce3c f95c 6c3e
000000f0: a7b1 0f3d 64c8 b4bd 7a52 0abc 5dbc 853c
00000100: bf41 26bb 8a88 b0bd 0b5d 233b 808b 8b3d
00000110: 6b17 01bd e66a 1f3e c33a f5bc c7f9 563e
00000120: 4ef9 a53c df64 8b3d 4634 1e3e c5ff 31bc
00000130: 88e8 e63b 27d5 45bc 5b6d edbc 54e8 00bd
00000140: 6c91 b63c 3549 633d 8795 a03d c4e9 db3c
00000150: 35c8 563d 51a3 88bd 31ea 4c3d c569 b53c
00000160: dbd0 0a3d 79ae d6bc ce51 78bc ce68 f3ba
00000170: 9d25 a93c 1536 2a3d c255 693d 42cf 83bd
00000180: 9655 2dbd 9984 0dbd d84e 003d c431 6dbc
00000190: c9a0 01bd c4d7 bd3c b05e 25bd 75f0 0f3d
000001a0: 9026 c8bc 042b 913c 7489 c9bc ceae b7bc
000001b0: e6f0 18bd 307d 423b e274 243d 76fa 19bd
000001c0: b1a0 fabc 5e3b d9bc ed8d f03d ed6e 4b3e
000001d0: 647f 2fbd 57f0 a4bd 1742 f13d 4711 f13c
000001e0: 2325 783d d24e 943d d0c5 00be 96ee f6bc
000001f0: 5caf 24bb 3314 3d3d 4efc 88bd cb0a 6bbd
00000200: 6418 2cbd cea3 0e3d d0d3 973b 4d2f a1bd
00000210: acb9 3d3d ed52 68bc 0f51 93bd 1dfd 323d
00000220: fd6c 87bc b69b 193d 169e a2bc 0c2e 52bc
00000230: d4bf b33c 3604 26bc 2ca2 353d a238 6cbb
00000240: b036 b3bd c851 e5bd 927a 033c a65f ff3c
00000250: 6c5f 4bbe 5efa e3bd 21f9 353e d3d1 2f3e
00000260: fd38 f33c 9b76 9d3d 80a7 7f3d b3bd 5ebc
00000270: 093e d73d 3af7 713d 7638 2abe 841f ec3c
00000280: b648 253d 69c0 4dbd 023f c9bd a5b8 68bd
00000290: 3c0a d2bc a8b3 11bd cae4 9fbd 3a84 333e
000002a0: 4fd9 db3d 4c11 f0bd 82fc fe3d 8d2c f23c
000002b0: 4b4d 2bbc 9c6c 443d fe51 7fbc 0155 61bd
000002c0: fccf fb3c 6239 3fbd 4c34 dfbc 0262 49bd
000002d0: de98 31bd 38d5 863c 7824 1b3d a8d6 913c
000002e0: b860 c93c d8b5 2dbd 303b abbc b6ce 193d
000002f0: e0af ea3b 0c23 82bb b99b 233d 45f5 aabb
00000300: 27ef 15bd 56f6 a5bd e553 d7bd 5f31 633d
00000310: fd69 babd 233a 25bd cb1a 963d 70eb 8c3e
00000320: e74f 8bbd 7c58 833d 22e3 b83d 3dbb 2bbd
00000330: ab8d 3a3e b326 c73c 8789 36bd 5e6c c6bd
00000340: 80e6 95bb a49c 06be 706f 933b f21d d53d
00000350: 6429 fcbd b00d 84bd b819 853e e07f b13c
00000360: 5e70 103e 4b8a 9c3d 08bc 5abc 71e3 5cbc
00000370: 7f04 263e 0fdb cb3c 52ab 30be a413 3c3d
00000380: 5c9a 853c dafc d6bd 5b01 053e cb4a 0d3e
00000390: f742 1fbc f4b5 ab3d 3d59 8cbd 07bb aabc
000003a0: 2337 aa3d 3f4a 8abb 45fb 24bc dbd4 18bc
000003b0: 3887 933d 89cd 66bd b0b7 693d 6408 ffbd
000003c0: a42a cbbc e4b2 ce3c 548d 703b 3911 1bbc
000003d0: 5f87 18be 712c 74bc 33cc 8d3d 196c a13d
000003e0: c6da 17bd 982f 7d3d ac52 3dbd 6c47 7abd
000003f0: e4b6 943d ef14 e73c 9876 52bd e769 b63c

bias f4 [50]
0.06631125 0.083017275 0.17299627 0.072475545 0.09104486 0.23245981 0.035498552 0.08736995
0.09621835 0.05809419 0.169589 0.11994876 0.11080445 0.11192369 0.13106386 0.06704957
0.114292316 0.076882735 0.1205008 0.09867635 0.052971337 0.07336158 0.14572854 0.072986014
0.014201184 0.041920207 0.117413685 0.06843874 0.14196903 0.22106108 0.114949144 0.07920353
-0.022255834 0.13097274 0.22521335 0.01587275 0.08419747 0.09001315 0.085770324 0.106269896
0.07740817 0.03674583 0.08731885 0.18478082 0.0682567 0.110496774 0.18304843 0.035460874
0.07821045 0.068827875
00000000: 31ce 873d f604 aa3d ef25 313e 0f6e 943d
00000010: ba75 ba3d f209 6e3e ee66 113d 04ef b23d
00000020: 200e c53d 2cf4 6d3d bda8 2d3e b2a7 f53d
00000030: 72ed e23d 3f38 e53d 9b35 063e 4951 893d
00000040: 1712 ea3d b274 9d3d 20c9 f63d d416 ca3d
00000050: 79f8 583d 993e 963d dd39 153e b179 953d
00000060: 15ac 683c 86b4 2b3d 9676 f03d 9c29 8c3d
00000070: 5460 113e d65d 623e 756a eb3d 7635 a23d
00000080: de51 b6bc b81d 063e 549e 663e 9207 823c
00000090: b96f ac3d d058 b83d 5aa8 af3d 08a4 d93d
000000a0: 2d88 9e3d cc82 163d 3ad4 b23d 2f37 3d3e
000000b0: 2bca 8b3d 224c e23d 0c71 3b3e 6c3f 113d
000000c0: cd2c a03d a1f5 8c3d

weight f4 [10, 50]
-0.28125253 0.0632322 -0.24352808 0.224527 -0.04730055 -0.12196567 -0.3616672 -0.2645733
0.17389946 0.15059125 -0.26492894 0.15263475 0.1423029 0.11360424 -0.34525543 -0.34612462
-0.14561892 0.19420591 -0.31467298 0.22165576 -0.13962813 -0.21637261 0.14716503 0.13181862
0.086375594 0.113395855 -0.35838515 0.11856841 0.08573104 -0.38208735 0.18737337 0.15494521
-0.18720098 0.18374632 -0.06945245 0.0101032965 -0.08011046 -0.11130913 0.109336525 0.110523395
0.2095943 -0.26966676 0.021332234 -0.30604988 -0.0508024 0.14618668 0.07385658 -0.3105271
-0.104878105 0.14263488 -0.17655705 0.11592626 0.21533789 -0.052599315 -0.1875592 0.2930597
-0.20288798 -0.1646375 -0.23364636 -0.2686479 0.12040087 -0.21711558 -0.20613477 -0.06466074
0.21594374 0.030898483 0.18338068 0.026724612 0.13041015 -0.010215424 -0.07806881 -0.16791447
0.23140267 -0.18130851 -0.14367832 -0.43368745 0.12409484 -0.38273075 0.32610816 0.18984073
0.23810452 -0.5515755 0.0074916915 -0.24493381 0.06033444 -0.08371509 0.12781821 -0.27572325
0.16622582 -0.30141973 -0.15403913 -0.014948242 -0.26537433 0.21909319 -0.38024962 -0.22893222
0.20335926 -0.05259265 -0.013751611 -0.21499072 0.12833188 -0.44027847 0.18442087 -0.10518012
0.25877315 -0.17989008 -0.11994039 0.18509875 -0.36257717 0.061445903 0.23990142 0.16282737
0.06453722 0.14474937 -0.23747757 -0.28340632 -0.19053291 0.14384 0.16065478 -0.04684867
0.15127082 0.16600211 -0.0982842 -0.023194827 -0.12379376 -0.07138246 -0.34701118 0.1410336
-0.23111069 0.08010615 0.10054381 0.15213202 0.0228831 0.16803458 -0.12229466 -0.050557293
-0.18535462 0.05242755 -0.45524862 -0.579744 0.25819096 0.12536784 -0.3076891 -0.1651246
0.16895036 0.17322971 -0.34247926 0.07074281 0.116831355 -0.3040829 -0.009203283 0.06409947
-0.026709815 0.13706134 -0.19115283 -0.10196167 0.12822722 0.09625971 -0.34379086 -0.23130669
0.21346188 0.017079877 -0.41000277 0.12950388 0.16998707 -0.26784533 0.14139399 0.21686262
0.15525568 0.25146875 0.16904849 -0.13838848 -0.3064236 -0.0017109697 -0.023500383 -0.11997667
0.08872339 0.108035035 -0.18082726 0.003975424 -0.07055257 0.13536924 -0.18550806 0.19294237
-0.41894802 -0.17784885 -0.22196828 -0.43148753 0.016305907 -0.248281 -0.08241497 -0.39707598
0.18842256 0.12291906 0.07926839 -0.20708098 -0.14775495 0.037973147 0.03862683 0.109256595
0.0590567 0.08229078 0.16134356 0.1928844 -0.04182917 0.24394333 -0.17903835 -0.15263149
0.17451122 -0.23247635 -0.09596985 0.20890255 0.14676116 -0.3035376 -0.20782211 -0.29200456
0.16657165 -0.47862607 -0.30725065 0.065507054 0.21931984 -0.103447676 -0.1181346 -0.083533466
-0.10092961 0.13447785 -0.35836256 -0.18627909 0.02339201 0.21479109 -0.20775671 -0.41902962
-0.1197775 -0.2069854 0.14451373 0.015404025 -0.012141816 0.13754511 0.105309 -0.26515594
0.21708578 -0.28720304 -0.38942203 0.20586197 0.14839555 -0.23484883 0.090685084 0.06940896
0.06375413 -0.20525965 -0.2538835 0.100132704 -0.07406711 -0.23862866 -0.028730696 -0.08637279
00000000: 5500 90be e27f 813d 6d5f 79be 68ea 653e
00000010: 39be 41bd 23c9 f9bd 712c b9be 2776 87be
00000020: b312 323e 9834 1a3e c4a4 87be 494c 1c3e
00000030: dab7 113e 57a9 e83d 52c5 b0be 3f37 b1be
00000040: 201d 15be eadd 463e d11c a1be baf9 623e
00000050: adfa 0ebe c890 5dbe 6eb2 163e 76fb 063e
00000060: b0e5 b03d 163c e83d 427e b7be ffd3 f23d
00000070: c193 af3d f4a0 c3be cede 3f3e f5a9 1e3e
00000080: 9db1 3fbe ff27 3c3e 163d 8ebd 4c88 253c
00000090: f410 a4bd 0bf6 e3bd d4eb df3d 175a e23d
000000a0: e39f 563e c311 8abe f0c0 ae3c 92b2 9cbe
000000b0: 2d16 50bd f6b1 153e 1e42 973d 68fd 9ebe
000000c0: 55ca d6bd e10e 123e 5fcb 34be bf6a ed3d
000000d0: 8981 5c3e 6172 57bd 850f 40be ec0b 963e
000000e0: dec1 4fbe bc96 28be fe40 6fbe 388c 89be
000000f0: bb94 f63d 8c53 5ebe fe14 53be da6c 84bd
00000100: 5b20 5d3e d11e fd3c 25c8 3b3e 93ed da3c
00000110: 3d8a 053e 985e 27bc 8ae2 9fbd c5f1 2bbe
00000120: d2f4 6c3e f0a8 39be 6920 13be 480c debe
00000130: 6f25 fe3d 49f5 c3be a6f7 a63e 9c65 423e
00000140: acd1 733e 0d34 0dbf dd7c f53b eecf 7abe
00000150: 3f21 773d d172 abbd c7e2 023e 992b 8dbe
00000160: 1a37 2a3e b053 9abe 6fbc 1dbe 79e9 74bc
00000170: 25df 87be f759 603e 14b0 c2be 356d 6abe
00000180: 693d 503e 646b 57bd 704e 61bc 8726 5cbe
00000190: 6f69 033e 2e6c e1be d3d8 3c3e ad68 d7bd
000001a0: ea7d 843e 1b35 38be 4fa3 f5bd 878a 3d3e
000001b0: b7a3 b9be b3ae 7b3d b8a8 753e 38bc 263e
000001c0: 172c 843d 2e39 143e 522d 73be a21a 91be
000001d0: 0f1b 43be cb4a 133e b082 243e 64e4 3fbd
000001e0: bde6 1a3e 75fc 293e 3a49 c9bd 1403 bebc
000001f0: 9587 fdbd f830 92bd 73ab b1be 1d6b 103e
00000200: 48a8 6cbe b10e a43d eae9 cd3d 7fc8 1b3e
00000210: 5775 bb3c 4211 2c3e 9f75 fabd 2a15 4fbd
00000220: 9acd 3dbe 45be 563d 5916 e9be 1a6a 14bf
00000230: 9b31 843e 6d60 003e 6d89 9dbe 6c16 29be
00000240: 5301 2d3e 2163 313e 7159 afbe 9be1 903d
00000250: 4745 ef3d c1b0 9bbe 5ec9 16bc 9546 833d
00000260: 8bce dabc cf59 0c3e 91bd 43be 48d1 d0bd
00000270: ff4d 033e d023 c53d 5b05 b0be a9db 6cbe
00000280: c095 5a3e 19eb 8b3c e2eb d1be aa9c 043e
00000290: 1711 2e3e 0623 89be 96c9 103e 3c11 5e3e
000002a0: 58fb 1e3e 83c0 803e 0c1b 2d3e b6b5 0dbe
000002b0: 8ee3 9cbe 9e42 e0ba e083 c0bc 54b6 f5bd
000002c0: 9cb4 b53d 7941 dd3d c82a 39be 4644 823b
000002d0: de7d 90bd 3c9e 0a3e d3f5 3dbe af92 453e
000002e0: 5b80 d6be 021e 36be a74b 63be efeb dcbe
000002f0: f793 853c 603d 7ebe 2ec9 a8bd 8b4d cbbe
00000300: d8f1 403e fdbc fb3d 7757 a23d 090d 54be
00000310: 134d 17be bb89 1b3d 2b37 1e3d ecc1 df3d
00000320: 70e5 713d 1288 a83d 3f37 253e 7d83 453e
00000330: 1055 2bbd 48cc 793e d455 37be 6e4b 1cbe
00000340: 12b3 323e 480e 6ebe d78b c4bd 8dea 553e
00000350: 8f48 163e 4869 9bbe 52cf 54be 9f81 95be
00000360: c291 2a3e 7a0e f5be f54f 9dbe 9028 863d
00000370: 6195 603e 60dc d3bd 8ef0 f1bd 9813 abbd
00000380: 2fb4 cebd 90b4 093e 4c7b b7be f2bf 3ebe
00000390: 9aa0 bf3c 32f2 5b3e 2dbe 54be 0d8b d6be
000003a0: e84d f5bd fbf3 53be 68fb 133e 2a61 7c3c
000003b0: 78ee 46bc a0d8 0c3e 3fac d73d 85c2 87be
000003c0: bc4b 5e3e 470c 93be 5362 c7be 7bcd 523e
000003d0: 01f5 173e 367c 70be 1ab9 b93d 4926 8e3d
000003e0: 8691 823d 962f 52be 05fd 81be 6012 cd3d
000003f0: 7fb0 97bd 125b 74be a35c ebbc 38e4 b0bd

bias f4 [10]
0.039852966 0.3071036 -0.18318139 0.073461756 0.085724 0.10643576 0.02757542 -0.11872184
0.08101961 -0.010473286
00000000: dd3c 233d af3c 9d3e e793 3bbe 1e73 963d
00000010: 1190 af3d fefa d93d d9e5 e13c 7024 f3bd
00000020: 9ced a53d 2598 2bbc
